edXProject/proj3/part2-mnist/mnist_model_fully_connected.pt (torch_old, 921738 bytes, 8 tensors)

weight f4 [32, 1, 3, 3]
0.310739 -0.052086484 -0.67627203 0.12557738 0.710328 0.28288767 -0.641035 0.34363696
0.11854206 -0.49466136 0.34111992 0.14042993 -0.26349726 0.15750644 0.24185336 -0.33208477
0.28470966 0.31257445 -0.30526513 -0.09065536 -0.13193192 -0.3533277 -0.28307098 -0.0408338
-0.21227655 0.24745524 0.33521903 -0.16671999 -0.23467071 0.056245033 0.028958708 0.19093776
0.046969634 -0.27027383 0.023139482 0.31828037 0.21452099 0.43021178 -0.0154865505 -0.038798634
-0.055254646 -0.4898175 0.35781088 -0.056016374 -0.005128109 0.08775744 -0.4137833 -0.24209566
0.24637944 -0.5116983 -0.43499365 0.6292265 0.4892953 0.34764606 -0.23361553 -0.5748477
-0.33493435 -0.29100046 -0.026540544 0.5410878 0.56806767 0.5212242 -0.19297212 0.14444889
-0.31398538 -0.18893908 0.30874375 -0.11009366 0.124278925 0.21499334 -0.041217647 0.15269148
0.44812286 -0.2156591 -0.6867292 0.24729082 0.3312144 0.038709395 -0.032640383 0.2588089
0.21965733 -0.20589496 0.1476739 -0.19434336 0.16065565 0.055263467 -0.5349424 0.41806784
0.4552172 -0.3512777 -0.066349134 0.13066664 -0.061192296 -0.057103682 -0.21959348 0.22229983
-0.31490993 0.25937825 -0.05192284 0.0017345836 -0.439496 -0.1724717 -0.48185945 -0.06863995
-0.27283484 -0.22368109 -0.052032378 0.0064711594 -0.11783373 -0.19514205 -0.13124852 -0.2605064
-0.33576173 -0.27740353 0.25515458 0.11830036 -0.24293366 0.25781828 -0.10664402 -0.44225395
-0.19042738 -0.10063223 -0.25875992 0.4289812 0.088651605 0.43009984 -0.17854096 -0.16756207
0.05682838 0.4479548 0.38448814 0.31843853 -0.22863582 -0.26542592 -0.39841628 -0.41071185
-0.43902683 -0.3019254 -0.006491715 0.22780067 0.22747628 -0.089139305 0.32111496 0.15763982
-0.4888145 0.24041988 0.38015416 -0.5925589 0.2520471 0.33177176 -0.39350176 0.18622488
0.0054178284 -0.54952914 0.49477628 0.46851906 0.016317174 0.8169219 -0.32246754 0.52258295
0.36177078 -0.7417614 0.7179368 0.3670297 0.5703025 -0.18405163 0.3630041 -0.0753186
-0.76283973 -0.8072225 -0.14481315 0.12985572 0.02411374 -0.008699146 -0.21640815 -0.15309206
-0.31896368 -0.26877776 -0.26159734 0.16370565 0.5654262 0.5327145 -0.25186 0.35725665
-0.46515363 -0.41839135 -0.096783645 -0.34235898 -0.21254909 0.22019295 0.04383707 -0.34373608
0.36227754 -0.23700584 -0.16575968 0.14393269 0.06916912 -0.20826562 0.02302636 -0.03250651
-0.18494792 -0.20397907 0.19597162 -0.21114582 -0.14815873 0.08772086 -0.025204144 -0.32071912
0.29479608 -0.005434748 -0.38844818 0.2399471 0.18513545 -0.4498753 0.24015501 0.0039880252
-0.17451943 0.3136575 0.17952967 -0.0036126375 0.031771194 0.41186747 -0.4641995 -0.3066076
-0.06853945 -0.12426276 0.1795299 -0.26738194 0.2466287 0.34044033 -0.10636269 -0.096942075
0.072710976 0.09835581 -0.2277436 -0.11618911 -0.21044467 0.37459996 -0.21658188 -0.387804
-0.07370897 0.35375705 0.5283367 0.32591975 0.016738156 -0.2398668 0.009543886 0.1868928
-0.19395675 -0.3147908 -0.038929537 -0.22099571 -0.39160284 -0.41311204 0.11887956 -0.3533643
00000000: 2f19 9f3e a358 55bd 2a20 2dbf 5b97 003e
00000010: 0ed8 353f a7d6 903e df1a 24bf 2ff1 af3e
00000020: 2ec6 f23d 4144 fdbe 45a7 ae3e ddcc 0f3e
00000030: 1de9 86be 5e49 213e 68a8 773e 0407 aabe
00000040: 77c5 913e c209 a03e b64b 9cbe 84a9 b9bd
00000050: 2919 07be 5ee7 b4be aeee 90be 5841 27bd
00000060: 065f 59be e864 7d3e d4a1 ab3e a5b8 2abe
00000070: 854d 70be 3161 663d d03a ed3c 3085 433e
00000080: 3b63 403d 5561 8abe 038f bd3c a5f5 a23e
00000090: 64ab 5b3e b844 dc3e 4dbb 7dbc 51eb 1ebd
000000a0: b252 62bd 5cc9 fabe fd32 b73e 6d71 65bd
000000b0: b209 a8bb 2cba b33d 68db d3be ede7 77be
000000c0: e44a 7c3e a9fe 02bf 7db7 debe fd14 213f
000000d0: ea84 fa3e aafe b13e e938 6fbe 3829 13bf
000000e0: 847c abbe 03fe 94be 8e6b d9bc bb84 0a3f
000000f0: e26c 113f f36e 053f 7c9a 45be 69ea 133e
00000100: b1c2 a0be 3f79 41be a913 9e3e c978 e1bd
00000110: f385 fe3d 3727 5c3e d6d3 28bd 285b 1c3e
00000120: 5c70 e53e bdd5 5cbe 7ccd 2fbf ce39 7d3e
00000130: ef94 a93e be8d 1e3d ecb1 05bd 9a82 843e
00000140: daed 603e 21d6 52be d437 173e f201 47be
00000150: ea82 243e f25b 623d fcf1 08bf fd0c d63e
00000160: 3b12 e93e acda b3be 0ee2 87bd 7acd 053e
00000170: c6a4 7abd 8de5 69bd 1ddd 60be 91a2 633e
00000180: e03b a1be 3acd 843e 0bad 54bd f85a e33a
00000190: 9f05 e1be 6c9c 30be 48b6 f6be 1a93 8cbd
000001a0: 02b1 8bbe a80c 65be e71f 55bd 050c d43b
000001b0: d052 f1bd 51d3 47be 0366 06be 1861 85be
000001c0: f6e8 abbe d607 8ebe 9fa3 823e 7647 f23d
000001d0: 9ac3 78be c200 843e 2e68 dabd 1c6f e2be
000001e0: 65ff 42be 4518 cebd 2e7c 84be 6da3 db3e
000001f0: f98e b53d 0c36 dc3e 71d3 36be 6495 2bbe
00000200: e0c4 683d 555a e53e a1db c43e 600a a33e
00000210: 821f 6abe e8e5 87be 38fd cbbe d348 d2be
00000220: 20c8 e0be f795 9abe 74b8 d4bb 9444 693e
00000230: 8bef 683e ab8e b6bd 2e69 a43e 556c 213e
00000240: e545 fabe a130 763e 91a3 c23e f1b1 17bf
00000250: 510c 813e fddd a93e 1079 c9be bcb1 3e3e
00000260: 0a88 b13b f1ad 0cbf 5153 fd3e bbe1 ef3e
00000270: 98ab 853c cb21 513f 771a a5be ffc7 053f
00000280: 053a b93e 13e4 3dbf b5ca 373f 51eb bb3e
00000290: 58ff 113f 0878 3cbe acdb b93e a340 9abd
000002a0: 7749 43bf 22a6 4ebf e649 14be e6f8 043e
000002b0: 2e8a c53c dd86 0ebc 199a 5dbe 2ac4 1cbe
000002c0: 354f a3be 3d9d 89be 16f0 85be 74a2 273e
000002d0: c5bf 103f fa5f 083f cbf3 80be 58ea b63e
000002e0: 9e28 eebe 6437 d6be 8136 c6bd ad49 afbe
000002f0: 78a6 59be 437a 613e 808e 333d 2dfe afbe
00000300: 717c b93e a9b1 72be e8bc 29be 1763 133e
00000310: 8aa8 8d3d 9543 55be c7a1 bc3c 8c25 05bd
00000320: fd62 3dbe e4df 50be c9ac 483e 9c36 58be
00000330: ecb6 17be ffa6 b33d ec78 cebc 4c35 a4be
00000340: 83ef 963e f815 b2bb aee2 c6be b1b4 753e
00000350: 2694 3d3e 0e56 e6be 32eb 753e fbad 823b
00000360: 39b5 32be b797 a03e a0d6 373e 00c2 6cbb
00000370: 8322 023d 4be0 d23e 8fab edbe acfb 9cbe
00000380: 695e 8cbd 797d febd b0d6 373e 49e6 88be
00000390: 3c8c 7c3e 324e ae3e afd4 d9bd 9189 c6bd
000003a0: 7ee9 943d c56e c93d 9e35 69be 8ef4 edbd
000003b0: cf7e 57be 91cb bf3e a4c7 5dbe 3f8e c6be
000003c0: baf4 96bd a51f b53e 1341 073f f4de a63e
000003d0: 751e 893c a49f 75be f65d 1c3c d360 3f3e
000003e0: 999c 46be 422c a1be 9474 1fbd b34c 62be
000003f0: 2b80 c8be 6c83 d3be 2077 f33d 2aec b4be

bias f4 [32]
-0.24790488 -0.08269849 0.23272282 -0.14634347 -0.22410187 -0.18188913 -0.06410987 -0.12364798
-0.27807915 -0.012623728 -0.31489083 0.5139658 0.27308413 -0.08838462 -0.018341186 0.086718366
-0.014937613 -0.5620178 -0.025136463 -0.12870246 0.070902966 -0.03182157 -0.08699574 0.06657669
-0.013549605 -0.13667177 -0.013699566 -0.058674652 -0.25836894 -0.13686505 -0.1951342 0.095653385
00000000: c7da 7dbe d35d a9bd e44e 6e3e 10db 15be
00000010: f67a 65be 2541 3abe 094c 83bd 273b fdbd
00000020: 6460 8ebe c1d3 4ebc 5f39 a1be 4393 033f
00000030: afd1 8b3e ff02 b5bd 4140 96bc 6699 b13d
00000040: e4bc 74bc 66e0 0fbf fcea cdbc 94ca 03be
00000050: 9335 913d 5657 02bd d32a b2bd 5c59 883d
00000060: 2aff 5dbc aff3 0bbe 2574 60bc d554 70bd
00000070: ef48 84be 5a26 0cbe 42d1 47be ece5 c33d

weight f4 [64, 32, 3, 3]
-0.05491991 0.087035224 0.048554994 0.00854164 -0.07459652 -0.08672241 -0.007941738 0.058204766
0.008886975 -0.0697177 0.057354804 0.16298252 -0.0816705 -0.030758677 -0.057699837 0.021907508
0.017136011 -0.04502837 0.024097258 -0.052232508 -0.055281907 -0.017459374 -0.050044153 0.017381392
-0.045033205 0.028720118 0.0068490366 0.045923468 -0.0032365217 0.0071203057 0.052695435 -0.066362426
0.018617205 -0.020940684 -0.04545405 0.048365466 -0.018222593 -0.046271168 -0.015332618 -0.078019716
0.0075737056 -0.038553145 -0.019454297 -0.01650248 0.0047457833 0.023279153 -0.0654008 -0.07556283
0.071590915 0.10663097 0.02865542 0.053446453 0.07209897 0.042861555 -0.06717243 -0.02442623
0.016679948 -0.004710817 -0.06392871 -0.04801951 -0.004668805 0.068976976 0.01687989 -0.05472338
0.021531507 0.032258812 -0.024576474 0.05838715 0.018985396 0.023459125 0.00898086 0.012602173
-0.012530136 -0.0015968136 0.024357606 -0.07344201 0.014133082 -0.0063453214 0.0011841068 0.027106412
0.00013512395 -0.05771372 -0.033774097 -0.0151787875 0.025575556 -0.01823523 -0.063990764 0.0170111
0.035532217 0.061448447 0.018489948 0.040121716 -0.03696806 -0.0074086096 -0.039642446 -0.056298148
-0.002134482 -0.036408793 0.02322917 0.031324733 -0.07053347 -0.06801508 -0.039927606 0.021051602
-0.07097416 0.025204312 -0.03782104 -0.045646828 0.047953755 -0.039993063 -0.0837475 -0.029230896
-0.041416604 0.0030887972 0.00812887 0.033099838 -0.04673393 -0.032823786 -0.07064924 -0.04107251
-0.005404738 -0.01865721 -0.016588321 -0.013353994 0.027980108 0.046435893 0.025394235 8.10904e-05
0.033492863 -0.05866203 -0.057303417 0.034026414 0.03982077 -0.009199905 -0.08670192 -0.06613479
-0.038919147 0.020613732 0.0043365187 -0.067302786 -0.094000906 -0.035139907 -0.0123700285 0.058964916
-0.009941131 0.09260252 0.053286474 -0.01989753 -0.05532549 -0.027322652 -0.02657068 -0.06589778
-0.015200537 -0.055255678 -0.0331919 0.04923917 -0.04114725 -0.10543877 -0.10879025 -0.039326284
-0.06407352 -0.0014628458 -0.019012015 0.02138259 0.097206846 -0.07811981 0.06540966 0.09081605
-0.06432046 0.0018749897 -0.03156568 0.03777064 0.05324754 -0.024486557 -0.044304498 -0.019106003
-0.052444357 0.044269916 0.010924882 0.026474066 -0.103129335 -0.039826013 -0.060085997 -0.09442229
-0.05768854 -0.011298325 -0.08069773 -0.091823205 -0.091853514 -0.07494455 0.028566951 -0.04211249
0.022114221 0.010032686 -0.033605535 -0.035014108 0.021528611 -0.06919609 0.040350784 0.014648041
0.020699829 0.012019217 0.0544599 0.021176502 -0.02687302 0.045010712 -0.01369649 -0.008918816
-0.0044500814 -0.007522647 -0.037419178 -0.021393985 -0.03328181 -0.07143897 -0.01883286 -0.017202584
-0.04096917 0.041608423 0.06288622 -0.012778428 0.016269017 0.06391397 0.042986546 -0.01114465
-0.062554635 -0.08263782 0.034079574 0.082863025 0.045599967 -0.03392324 -0.005793367 0.040890645
-0.04708021 0.04438895 -0.0824009 -0.05761674 0.014040881 0.07312351 -0.030205619 -0.011084864
0.064950354 0.10533289 0.056300316 -0.00014822393 0.002686259 -0.031316902 -0.013000272 -0.027984701
0.014666911 0.020113217 0.03443295 -0.051606797 -0.024007276 -0.042729743 0.08531402 0.024728965
00000000: b3f3 60bd 863f b23d 9ae1 463d 3cf2 0b3c
00000010: 0fc6 98bd 859b b1bd 101e 02bc 1f68 6e3d
00000020: ad9a 113c 27c8 8ebd dfec 6a3d e4e4 263e
00000030: dd42 a7bd 9ff9 fbbc aa56 6cbd 6077 b33c
00000040: d260 8c3c ab6f 38bd 9d67 c53c c1f1 55bd
00000050: 486f 62bd f606 8fbc 19fb 4cbd 6c63 8e3c
00000060: bd74 38bd 7446 eb3c e26d e03b 3f1a 3c3d
00000070: d31b 54bb 7451 e93b 2bd7 573d 06e9 87bd
00000080: 1c83 983c cc8b abbc 072e 3abd de1a 463d
00000090: 8c47 95bc d686 3dbd a935 7bbc cdc8 9fbd
000000a0: d92c f83b e7e9 1dbd 9e5e 9fbc 3530 87bc
000000b0: 8482 9b3b ecb3 be3c dbf0 85bd afc0 9abd
000000c0: 429e 923d 5761 da3d c5be ea3c abea 5a3d
000000d0: a0a8 933d 998f 2f3d b391 89bd 8419 c8bc
000000e0: 63a4 883c 325d 9abb 0eed 82bd 1bb0 44bd
000000f0: c6fc 98bb cd43 8d3d b247 8a3c 9f25 60bd
00000100: d862 b03c d121 043d 9a54 c9bc 5d27 6f3d
00000110: 4387 9b3c 5a2d c03c 7524 133c 5879 4e3c
00000120: 334b 4dbc 2c4c d1ba 9a89 c73c c468 96bd
00000130: 718e 673c 6aec cfbb 0834 9b3a 440e de3c
00000140: 0fb0 0d39 3965 6cbd b556 0abd 73b0 78bc
00000150: d483 d13c 0d62 95bc 970d 83bd dd5a 8b3c
00000160: 3b8a 113d 5eb1 7b3d 3b78 973c ab56 243d
00000170: d26b 17bd ecc3 f2bb 1e60 22bd e398 66bd
00000180: aae2 0bbb 6321 15bd 1a4b be3c 5d4e 003d
00000190: da73 90bd 7e4b 8bbd 218b 23bd 6974 ac3c
000001a0: e75a 91bd 4679 ce3c 3cea 1abd 2bf8 3abd
000001b0: 286b 443d c4cf 23bd cf83 abbd a275 efbc
000001c0: 75a4 29bd 6b6d 4a3b f42e 053c b293 073d
000001d0: 146c 3fbd 3c72 06bd 8cb0 90bd a63b 28bd
000001e0: 3a1a b1bb 01d7 98bc 3be4 87bc b6ca 5abc
000001f0: 8a36 e53c 9033 3e3d 9207 d03c 140f aa38
00000200: d02f 093d 9947 70bd fdb6 6abd 485f 0b3d
00000210: 1b1b 233d 33bb 16bc c790 b1bd ad71 87bd
00000220: af69 1fbd 21de a83c 5b19 8e3b 0bd6 89bd
00000230: 8c83 c0bd ddee 0fbd a9ab 4abc 3285 713d
00000240: 20e0 22bc 64a6 bd3d eb42 5a3d 2500 a3bc
00000250: fb9c 62bd c1d3 dfbc c1aa d9bc 6af5 86bd
00000260: ac0b 79bc c753 62bd 3bf4 07bd 03af 493d
00000270: 058a 28bd 48f0 d7bd 6ccd debd 9914 21bd
00000280: fa38 83bd f6bc bfba 16bf 9bbc 8b2a af3c
00000290: 6214 c73d 47fd 9fbd 80f5 853d c4fd b93d
000002a0: 72ba 83bd 37c2 f53a 044b 01bd 63b5 1a3d
000002b0: 181a 5a3d 0898 c8bc a278 35bd 3184 9cbc
000002c0: e5cf 56bd 5f54 353d 47fe 323c 24e0 d83c
000002d0: 7935 d3bd 9a20 23bd bc1c 76bd 7960 c1bd
000002e0: d24a 6cbd 9c1c 39bc da44 a5bd ce0d bcbd
000002f0: b21d bcbd 877c 99bd 3d05 ea3c 257e 2cbd
00000300: e228 b53c 2360 243c f5a5 09bd f46a 0fbd
00000310: c55c b03c aeb6 8dbd dd46 253d 56fe 6f3c
00000320: b092 a93c 40ec 443c 5811 5f3d 587a ad3c
00000330: cf24 dcbc 275d 383d 3e67 60bc 3a20 12bc
00000340: fdd1 91bb 8980 f6bb da44 19bd 7042 afbc
00000350: 8252 08bd 984e 92bd 5f47 9abc 6fec 8cbc
00000360: 4acf 27bd 986d 2a3d 7eca 803d 9d5c 51bc
00000370: 9a46 853c 54e5 823d a912 303d 0d98 36bc
00000380: a51c 80bd 043e a9bd 0697 0b3d 17b4 a93d
00000390: 08c7 3a3d 18f3 0abd 49d6 bdbb f37c 273d
000003a0: 2ed7 40bd 30d1 353d cec1 a8bd 88ff 6bbd
000003b0: b90b 663c c7c1 953d c671 f7bc 4a9d 35bc
000003c0: b104 853d c5b8 d73d 299b 663d 8f6c 1bb9
000003d0: f30b 303b 2746 00bd 18ff 54bc 2c40 e5bc
000003e0: 7c4d 703c 79c4 a43c 9109 0d3d a661 53bd
000003f0: e8aa c4bc 6205 2fbd 1eb9 ae3d 6694 ca3c

bias f4 [64]
0.011514651 0.031597547 0.037272185 0.010460858 0.0028324288 0.00044255922 -0.04752463 -0.20086229
-0.025135156 -0.16934732 -0.015231079 -0.0024580944 0.029755676 -0.061877545 -0.086740464 -0.060902912
-0.084714 0.0028561782 -0.048841536 -0.044053696 -0.06696364 -0.040843826 -0.009768331 -0.023790218
-0.05085954 -0.04307683 -0.077892736 -0.09252759 -0.10546451 0.012965016 -0.015689725 -0.11467425
-0.0820793 -0.2322453 -0.048511107 -0.058913946 -0.058238007 0.019529827 -0.017616162 -0.015328882
-0.014734272 -0.063777246 -0.14681807 -0.037123214 -0.04354679 -0.03817727 0.051430903 -0.008361418
-0.021239188 -0.14526467 -0.00019038751 -0.012342578 -0.04801341 -0.1315475 -0.049298048 -0.01789832
-0.02506899 -0.1378488 -0.029189935 -0.06676055 -0.02441532 -0.20274374 -0.002234092 -0.015049564
00000000: f2a7 3c3c 6e6c 013d b8aa 183d 0564 2b3c
00000010: 45a0 393b 4b07 e839 30a9 42bd d8ae 4dbe
00000020: 3ee8 cdbc 6269 2dbe c78b 79bc fb17 21bb
00000030: 2dc2 f33c 4f73 7dbd fca4 b1bd 5575 79bd
00000040: 897e adbd b82e 3b3b 100e 48bd a671 34bd
00000050: 3c24 89bd db4b 27bd 5a0b 20bc b4e3 c2bc
00000060: 1852 50bd 5571 30bd 3a86 9fbd 1b7f bdbd
00000070: c7fd d7bd 386b 543c bd87 80bc 55da eabd
00000080: 3119 a8bd b6d1 6dbe 95b3 46bd c04f 71bd
00000090: fa8a 6ebd 04fd 9f3c c54f 90bc fe25 7bbc
000000a0: 0468 71bc a59d 82bd 7a57 16be 830e 18bd
000000b0: 1e5e 32bd c55f 1cbd 36a9 523d 54fe 08bc
000000c0: cefd adbc 43c0 14be c2a2 47b9 8638 4abc
000000d0: b6a9 44bd 63b4 06be c0ec 49bd 7f9f 92bc
000000e0: 7c5d cdbc 3c28 0dbe bb1f efbc c1b9 88bd
000000f0: a302 c8bc 0e9c 4fbe d869 12bb 7292 76bc

weight f4 [128, 1600]
-0.021734633 -0.010579051 0.03250781 0.028649777 0.028263697 0.008186139 -0.0082813045 -0.011619989
0.009543353 0.0020594774 -0.036842734 -0.037542056 -0.004327854 -0.008073858 0.020579217 0.0059034512
0.05861486 0.044848863 0.014002916 0.012793695 0.0030012 0.013971019 0.02657073 0.00032882747
-0.0034388863 -0.016995141 0.0015427264 -4.977997e-05 0.017815087 -0.023462102 -0.020483403 -0.008033115
0.012447591 0.023915287 -0.0028733318 -0.006672234 -0.033195484 0.016021613 0.03011258 0.016280726
-0.020697078 8.8648594e-05 0.009156514 -0.011410378 -0.0068145166 0.015113651 -0.014588407 0.03138302
0.008781778 -0.033337474 -0.0069262157 0.0007720215 0.024687959 -0.014997615 0.002310156 -0.015167436
-0.01187465 0.017956538 -0.0026585208 -0.0064047547 -0.0067802076 -0.014782964 -0.013853314 0.0032020293
-0.021177305 -0.014137481 9.835652e-05 -0.021402886 -0.008195699 -0.023650289 0.022679765 -0.012954585
0.0055999123 -0.0073911366 -0.030531486 -0.022598462 -0.0069017033 -0.0113297915 -0.043876655 0.010227554
0.011200582 -0.0026975584 0.0017221175 -0.026910635 0.021070536 0.0034340688 0.03477375 0.022161396
0.015955118 -0.013985127 0.0030199217 -0.05235939 0.022836005 0.024483694 -0.0033343981 0.02375887
-0.016359376 0.0025782352 0.019616995 0.0010088033 0.035897765 0.008507906 0.030874018 0.07302365
0.03637979 -0.020451415 -0.017068518 0.042692948 0.042112745 -0.025017997 -0.037996884 -0.05953607
-0.020683113 -0.024258386 -0.023352332 -0.015047337 0.0064652404 0.04010184 0.0012937804 -0.03895184
0.03047484 0.08826596 0.0640074 0.013555743 -0.0503302 -0.015455479 -0.0071167536 0.02701693
0.011593046 -0.023170544 -0.029429488 0.0037123046 0.020795695 -0.0028624716 -0.002243828 -0.03375725
-0.006164751 0.02910792 0.025692951 -0.009172607 -0.022512468 0.05928452 0.0015329224 -0.020919506
-0.02817393 0.012078584 0.025342619 -0.0042592874 0.0018884713 -0.025783435 -0.016526932 -0.004136139
-0.027819991 0.009866892 0.013224317 0.014539805 0.018121723 0.042655334 0.0006392521 0.002548878
-0.008962786 0.030202664 0.01396894 -0.0062080417 -0.0145363035 -0.0115752 -0.01792737 -0.0009251531
-0.024048522 -0.021491272 0.0015583852 -0.0125970775 0.009925894 0.014065194 -0.027875505 0.0045622108
0.022860847 0.027911633 0.08549119 0.003911862 0.0030712595 0.011745897 0.024492072 0.04471724
0.034700554 0.026841879 -0.014084263 -0.009426057 0.00013143962 -0.016564062 -0.01036666 -0.013775421
-0.04746768 -0.023388194 0.011349583 0.0027885283 -0.029258609 -0.08869836 -0.027008662 0.009710985
0.010054976 -0.0235916 0.01520438 0.021447323 0.018651292 0.009747774 0.009996998 -0.03877616
-0.025377633 -0.02487943 -0.009843422 -0.0065327454 0.0047997627 -0.029752776 0.013884264 0.013365601
0.04968409 0.035305146 0.027963564 -0.0267721 0.019350985 0.03214206 0.012172703 0.019509686
-0.03527986 -0.024046266 0.023690902 0.03395364 0.06504807 0.025135156 -0.016400598 0.00718399
-0.01705509 0.051601414 0.021509396 -0.0070739347 -0.039339248 -0.085490614 0.015490532 -0.009579981
0.014227936 -0.007797772 -0.009294837 -0.052316424 -0.104284085 0.020249253 -0.030831067 -0.04502313
-0.05170448 -0.050241303 -0.0065324833 -0.011732824 -0.030374348 -0.0026640485 0.009466316 -0.004324812
00000000: d40c b2bc c253 2dbc e926 053d f0b2 ea3c
00000010: 4589 e73c 281f 063c 4fae 07bc c461 3ebc
00000020: b95b 1c3c 4cf8 063b 68e8 16bd b3c5 19bd
00000030: acd0 8dbb 3748 04bc bf95 a83c bd71 c13b
00000040: 2316 703d 71b3 373d 7d6c 653c a59c 513c
00000050: c8af 443b b3e6 643c dcaa d93c 7a66 ac39
00000060: f05e 61bb 6539 8bbc 4f35 ca3a d6ca 50b8
00000070: f2f0 913c 9833 c0bc cfcc a7bc 549d 03bc
00000080: fbf0 4b3c fee9 c33c 824e 3cbb c1a2 dabb
00000090: fdf7 07bd c23f 833c a8ae f63c 285f 853c
000000a0: eb8c a9bc dae8 b938 3405 163c 98f2 3abc
000000b0: 4f4c dfbb 3f9f 773c 3704 6fbc 7b8b 003d
000000c0: 72e1 0f3c e08c 08bd 4ff5 e2bb 7c61 4a3a
000000d0: 673e ca3c 8eb8 75bc fc65 173b d680 78bc
000000e0: e48d 42bc 9719 933c 943a 2ebb fade d1bb
000000f0: 812c debb 3f34 72bc 03f9 62bc 23d9 513b
00000100: 077c adbc e5a0 67bc c144 ce38 1b55 afbc
00000110: 4147 06bc 40be c1bc eaca b93c 783f 54bc
00000120: 787f b73b 5931 f2bb 2b1d fabc 6920 b9bc
00000130: af27 e2bb 97a0 39bc 02b8 33bd 7891 273c
00000140: a582 373c 85c9 30bb adb8 e13a b173 dcbc
00000150: 1e9c ac3c 1d0e 613b eb6e 0e3d d18b b53c
00000160: 4fb4 823c e021 65bc e1e9 453b cd76 56bd
00000170: 9312 bb3c 0792 c83c eb85 5abb f6a1 c23c
00000180: 1904 86bc 9cf7 283b d2b3 a03c d239 843a
00000190: 8909 133d bf64 0b3c 82eb fc3c 6c8d 953d
000001a0: fa02 153d ba89 a7bc 47d3 8bbc cdde 2e3d
000001b0: 6a7e 2c3d 8bf2 ccbc 9fa2 1bbd 18dc 73bd
000001c0: a26f a9bc 86b9 c6bc 644d bfbc 1b89 76bc
000001d0: 5eda d33b d441 243d 1194 a93a f78b 1fbd
000001e0: 5fa6 f93c c9c4 b43d 5016 833d e818 5e3c
000001f0: 0a27 4ebd fa38 7dbc a833 e9bb 9c52 dd3c
00000200: c2f0 3d3c 27d0 bdbc 1c16 f1bc 234a 733b
00000210: bc5b aa3c 4e98 3bbb 300d 13bb 0b45 0abd
00000220: ae01 cabb bc73 ee3c 067a d23c b448 16bc
00000230: 116c b8bc 53d4 723d 57ec c83a 625f abbc
00000240: 03cd e6bc 41e5 453c 539b cf3c 7e91 8bbb
00000250: 9586 f73a c837 d3bc 7d63 87bc 7388 87bb
00000260: c0e6 e3bc bfa8 213c ceaa 583c 5d38 6e3c
00000270: 0274 943c 5cb7 2e3d 7b93 273a 140b 273b
00000280: a6d8 12bc 946b f73c fbdd 643c d46c cbbb
00000290: ad29 6ebc e8a5 3dbc 6bdc 92bc f985 72ba
000002a0: 6801 c5bc 770e b0bc bb42 cc3a f963 4ebc
000002b0: 38a0 223c b371 663c 2c5b e4bc 997e 953b
000002c0: ac46 bb3c f0a6 e43c 0116 af3d 142f 803b
000002d0: 2f47 493b dd71 403c 99a3 c83c 6d29 373d
000002e0: 2b22 0e3d 80e3 db3c aec1 66bc c06f 1abc
000002f0: 0ed3 0939 5bb1 87bc ecd8 29bc 4eb2 61bc
00000300: 786d 42bd 9998 bfbc 9af3 393c bebf 363b
00000310: c0af efbc 7ca7 b5bd 4541 ddbc d31a 1f3c
00000320: a0bd 243c 2c43 c1bc cb1b 793c 4cb2 af3c
00000330: 98ca 983c 21b5 1f3c 73ca 233c c0d3 1ebd
00000340: c1e4 cfbc f2cf cbbc 4e46 21bc a410 d6bb
00000350: 5447 9d3b 18bc f3bc d37a 633c 65fb 5a3c
00000360: 8b81 4b3d 219c 103d d813 e53c 2a51 dbbc
00000370: f585 9e3c 65a7 033d 0470 473c c7d2 9f3c
00000380: 9d81 10bd adfc c4bc 6c13 c23c f912 0b3d
00000390: ec37 853d 3ee8 cd3c 8c5a 86bc ad67 eb3b
000003a0: 1eb7 8bbc 015c 533d 7934 b03c 77cc e7bb
000003b0: 3122 21bd b415 afbd 00cc 7d3c 5af5 1cbc
000003c0: 4a1c 693c 7484 ffbb 5f49 18bc bf49 56bd
000003d0: e592 d5bd c3e1 a53c 6f91 fcbc 2c6a 38bd
000003e0: 14c8 53bd d3c9 4dbd 710e d6bb 083b 40bc
000003f0: a0d3 f8bc 5197 2ebb 9b18 1b3c 27b7 8dbb

bias f4 [128]
-0.041669875 0.056688562 -0.026587682 -0.004444593 -0.06318757 -0.032313034 -0.035967894 -0.040898502
-0.004272753 0.028346462 -0.0043029827 0.008476891 0.04816987 0.035197567 -0.03251624 -0.043746173
-0.04225192 -0.032314505 -0.023329295 -0.029069122 -0.015307734 0.01668745 -0.0067094276 -0.04162976
-0.0086545255 -0.008759894 0.03569977 0.009748575 -0.0146400845 -0.014437036 0.018124755 0.049268615
-0.029409703 -0.021740124 -0.026290078 -0.050189763 0.04151784 0.012466048 0.029781358 0.007970977
0.0439142 0.00015006904 -0.026927985 0.069433846 0.008376368 -0.0044231657 -0.024128933 0.030788088
0.04589621 0.02051975 0.0086720735 0.004826484 -0.07593351 0.033201758 0.0075689475 0.017289756
0.04001319 -0.012858136 0.022033531 0.003327348 0.04157285 -0.011812136 0.023436522 0.003515067
0.008621423 -0.03589751 -0.037667297 -0.002453125 -0.012776205 0.0045586014 0.038891476 -0.060169786
-0.059215743 0.053305063 -0.011866429 -0.05764882 0.038561027 -0.02135795 -0.06415422 0.046777923
0.04768085 -0.0054822937 0.020945484 0.023789633 0.012608272 0.039090887 -0.0008598755 0.029808374
-0.00853004 0.018273909 0.04422071 0.018923339 -0.004216265 0.0053837285 0.0075265467 0.022831097
0.03963509 -0.0030076222 0.02443081 0.013965401 -0.0075967964 -0.009973987 -0.025365598 0.036089417
0.0014408703 0.015772406 -0.020158697 0.04460323 -0.027930629 0.021543534 -0.008273867 0.020041013
0.014677645 -0.050469074 0.027850017 0.0014091663 -0.06371803 0.018011572 0.014710056 -0.016751455
-0.025385685 0.023975644 -0.0044134287 -0.03890957 -0.034877595 -0.025854904 0.01221522 -0.012497434
00000000: 08ae 2abd 4432 683d 69ce d9bc f3a3 91bb
00000010: 7c68 81bd ac5a 04bd 1253 13bd 3085 27bd
00000020: 7302 8cbb d736 e83c 0900 8dbb a8e2 0a3c
00000030: c54d 453d 532b 103d c02f 05bd 302f 33bd
00000040: 5910 2dbd 375c 04bd 141d bfbc 5e22 eebc
00000050: 4acd 7abc 1fb4 883c c2da dbbb f883 2abd
00000060: b6cb 0dbc a985 0fbc ec39 123d 7db8 1f3c
00000070: f7dc 6fbc 5189 6cbc 5e7a 943c e3cd 493d
00000080: 9eec f0bc 5818 b2bc 4a5e d7bc c893 4dbd
00000090: 9c0e 2a3d 653e 4c3c 09f8 f33c b398 023c
000000a0: 60df 333d da5b 1d39 1498 dcbc 5533 8e3d
000000b0: 093d 093c 34f0 90bb 0aaa c5bc 4d37 fc3c
000000c0: aafd 3b3d 0919 a83c 5015 0e3c 7b27 9e3b
000000d0: 0783 9bbd 91fe 073d ef04 f83b 3fa3 8d3c
000000e0: dfe4 233d eeaa 52bc aa7f b43c a30f 5a3b
000000f0: 4b48 2a3d b087 41bc f3fd bf3c 0a5d 663b
00000100: de40 0d3c 4409 13bd 0649 1abd 9cc4 20bb
00000110: 4a53 51bc 5260 953b ab4c 1f3d 9874 76bd
00000120: 358c 72bd 6956 5a3d 696b 42bc 2b21 6cbd
00000130: 2bf2 1d3d def6 aebc 4a63 83bd 359a 3f3d
00000140: ff4c 433d d0a4 b3bb dd95 ab3c 7ae2 c23c
00000150: ed92 4e3c c41d 203d 4569 61ba b130 f43c
00000160: 95c1 0bbc 2ab3 953c c620 353d 1e05 9b3c
00000170: 9828 8abb fd69 b03b 40a1 f63b 4808 bb3c
00000180: 6758 223d 871b 45bb 1f23 c83c 23cf 643c
00000190: 8cee f8bb ef69 23bc 84cb cfbc 7fd2 133d
000001a0: 96db bc3a 2235 813c da23 a5bc e0b1 363d
000001b0: c6ce e4bc 117c b03c 1d8f 07bc 0d2d a43c
000001c0: 817a 703c a9b8 4ebd b825 e43c c6b3 b83a
000001d0: 997e 82bd 018d 933c 7202 713c 593a 89bc
000001e0: a4f5 cfbc 9268 c43c 869e 90bb a45f 1fbd
000001f0: cfdb 0ebd aacd d3bc 5922 483c 0ac2 4cbc

weight f4 [10, 128]
0.12644829 -0.13187718 0.08473531 -0.05197739 -0.26573956 -0.17653318 -0.0951104 -0.2279885
-0.1258021 0.011619234 -0.19407897 -0.15103279 -0.18142271 -0.13156156 0.27283096 -0.25729042
-0.20726182 0.032691784 -0.13010773 -0.06264347 -0.030208549 0.14937904 0.15287939 0.04328047
0.2747852 -0.22844882 -0.16708213 -0.23433964 -0.20547286 -0.042143714 0.017034302 -0.16519472
-0.08402722 0.17997147 0.016124852 -0.23780052 -0.064487346 -0.10723939 -0.15369551 -0.24928494
-0.055180736 0.17754076 0.096330285 0.055254046 -0.072293684 0.16444148 0.23062009 -0.15831053
-0.09177058 0.0650675 0.12104294 -0.14228985 -0.19061197 0.18112227 0.2549518 -0.1255712
-0.20952195 -0.24710947 0.17043453 -0.17970267 0.17320943 -0.16616988 -0.13118231 -0.17152034
-0.14326152 -0.11516426 -0.098879345 -0.10897628 -0.21031779 0.01220127 -0.17508142 -0.092003256
-0.17858042 0.07029918 0.00079314417 -0.14320795 0.07588779 0.012690136 0.15584652 -0.17939559
0.1255386 -0.24430573 -0.15400071 0.020435499 0.2397508 -0.09681007 0.18298283 0.13044484
0.18318321 -0.12598492 0.23817755 -0.038969047 -0.12056775 -0.18914913 0.25892138 0.21322836
0.010752455 0.10207432 -0.15504104 0.13191293 -0.19050683 -0.22314683 -0.035378072 0.263279
-0.01139469 -0.0053244936 -0.10653816 -0.13383251 -0.19358757 -0.18365629 -0.24363796 -0.19388315
-0.15795393 -0.12831165 0.16538195 -0.22885671 -0.30280736 -0.18496639 -0.06571173 -0.1675017
0.043714456 0.15777786 0.15549056 0.02723586 0.0751552 -0.051882442 -0.14858359 0.073319346
-0.1903815 0.12882294 -0.063869976 -0.10340896 0.038069777 -0.11195016 0.060500626 0.032441802
0.26959503 0.23007937 0.11358482 -0.0003568829 0.23234077 0.09509076 -0.0852126 -0.16925108
-0.12769671 -0.06229991 -0.021637544 0.07996548 -0.005833018 -0.046440464 -0.11983149 -0.092260554
-0.09657286 0.0992469 0.3003416 0.17204718 0.07141274 0.09959158 -0.04624862 0.31456295
0.02288444 -0.25208816 -0.0020180438 -0.1781723 -0.0018430455 0.22780168 0.2464434 0.116585664
0.16253635 -0.081364036 0.019043993 0.20457757 0.00923229 -0.24865837 -0.14195803 0.17748913
0.25877964 0.14130867 0.10416268 -0.122068845 -0.26637265 0.10656556 0.14621778 0.15196489
0.28379703 -0.17941488 -0.058095694 0.24230514 0.29757327 0.1880768 0.17793097 0.035883233
0.13501334 -0.13690384 -0.107242204 0.17938974 0.12145601 0.099268615 0.14193755 -0.032748297
-0.24508886 0.2690572 0.21965776 -0.25915518 0.18177325 -0.20242526 -0.2659738 0.17587498
0.34456065 0.1384512 0.14686014 0.07682632 -0.1478975 0.20693624 0.037029997 -0.16432177
-0.11307436 0.26621085 0.10220114 0.21029136 -0.13422725 0.022803206 -0.14460981 -0.13800707
-0.21965341 0.14790523 0.3094269 0.07970294 0.003502564 0.060853083 -0.29957393 -0.026742723
-0.12998924 -0.07221765 -0.107292116 0.215949 -0.05424353 0.26108778 0.18561332 0.045160163
0.31558466 -0.11847669 0.059614953 0.09816898 -0.09026947 -0.118467286 0.28549352 -0.027365431
-0.14210568 0.21322602 -0.19416925 -0.14193727 -0.22488569 0.15714173 0.13170733 -0.04711279
00000000: a97b 013e d00a 07be b589 ad3d 3ee6 54bd
00000010: 040f 88be 1dc5 34be 3ec9 c2bd d175 69be
00000020: 44d2 00be 9a5e 3e3c a3bc 46be 57a8 1abe
00000030: e0c6 39be 13b8 06be 80b0 8b3e 92bb 83be
00000040: 713c 54be d2e7 053d f63a 05be 384b 80bd
00000050: eb77 f7bc d2f6 183e 6a8c 1c3e dd46 313d
00000060: a5b0 8c3e 7dee 69be 9417 2bbe bbf6 6fbe
00000070: 7a67 52be e39e 2cbd 858b 8b3c ce28 29be
00000080: 7716 acbd 714a 383e 4418 843c fb81 73be
00000090: f111 84bd 53a0 dbbd 5b62 1dbe 8d44 7fbe
000000a0: 3205 62bd 3fcd 353e d048 c53d 1152 623d
000000b0: b60e 94bd 5963 283e ac27 6c3e 281c 22be
000000c0: 37f2 bbbd 1c42 853d 5ce5 f73d 6eb4 11be
000000d0: c92f 43be 1e78 393e 0b89 823e bd95 00be
000000e0: ec8c 56be 440a 7dbe 6486 2e3e fa03 38be
000000f0: d05d 313e 7028 2abe a854 06be 07a3 2fbe
00000100: 26b3 12be 3ddb ebbd 4181 cabd f52e dfbd
00000110: 8c5d 57be d6e7 473c 8b48 33be 346c bcbd
00000120: c9dd 36be 04f9 8f3d 01eb 4f3a 1ba5 12be
00000130: 0f6b 9b3d 4aea 4f3c 3b96 1f3e 7ab3 37be
00000140: 318d 003e 482b 7abe 5db2 1dbe 5968 a73c
00000150: 3c81 753e 5c44 c6bd da5f 3b3e 5593 053e
00000160: 6194 3b3e 3102 01be d1e4 733e 029e 1fbd
00000170: 39ec f6bd 4fb0 41be 5891 843e 8958 5a3e
00000180: 112b 303c 570c d13d 14c3 1ebe 2f14 073e
00000190: 3914 43be 9a80 64be 99e8 10bd 81cc 863e
000001a0: cbb0 3abc 1779 aebb ae30 dabd 640b 09be
000001b0: d23b 46be 6510 3cbe 3b7c 79be 4e89 46be
000001c0: adbe 21be 2164 03be e359 293e 6a59 6abe
000001d0: 9109 9bbe d467 3dbe df93 86bd 9185 2bbe
000001e0: ee0d 333d 8590 213e eb38 1f3e bd1d df3c
000001f0: f8ea 993d af82 54bd 4c26 18be 7428 963d
00000200: 5ef3 42be 29ea 033e 43ce 82bd 14c8 d3bd
00000210: 0eef 1b3d 2046 e5bd 81cf 773d b2e1 043d
00000220: 5c08 8a3e ed99 6b3e 289f e83d 031c bbb9
00000230: bdea 6d3e f2be c23d f283 aebd 2850 2dbe
00000240: edc2 02be 312e 7fbd 3841 b1bc f1c4 a33d
00000250: e722 bfbb 5b38 3ebd 366a f5bd 1af3 bcbd
00000260: fec7 c5bd f541 cb3d 60c6 993e 232d 303e
00000270: d840 923d acf6 cb3d 316f 3dbd 650e a13e
00000280: 2678 bb3c b311 81be 2841 04bb cd72 36be
00000290: 5892 f1ba d844 693e a95b 7c3e 77c4 ee3d
000002a0: ee6f 263e 30a2 a6bd 2602 9c3c c87c 513e
000002b0: 0843 173c 4da0 7ebe 725d 11be b6bf 353e
000002c0: c47e 843e 38b3 103e 3e53 d53d 3bff f9bd
000002d0: ff61 88be 0b3f da3d 1dba 153e af9c 1b3e
000002e0: d84d 913e 89b8 37be c0f5 6dbd d71e 783e
000002f0: 865b 983e 3497 403e 8933 363e 4cfa 123d
00000300: f040 0a3e 8530 0cbe cda1 dbbd f2b1 373e
00000310: eebd f83d 584d cb3d 1458 113e 1423 06bd
00000320: 93f8 7abe dec1 893e f7ed 603e fdaf 84be
00000330: c422 3a3e 9148 4fbe b82d 88be 9218 343e
00000340: 416a b03e 27c6 0d3e 8162 163e 1e57 9d3d
00000350: 7172 17be 18e7 533e c4ac 173d f743 28be
00000360: 8893 e7bd ca4c 883e d54e d13d 9e56 573e
00000370: de72 09be cacd ba3c 9814 14be ba51 0dbe
00000380: d3ec 60be 7874 173e 346d 9e3e 4c3b a33d
00000390: 468b 653b 1541 793d c161 99be 8e13 dbbc
000003a0: e61b 05be d9e6 93bd f8bb dbbd bc21 5d3e
000003b0: 772e 5ebd 4cad 853e 6b11 3e3e ddf9 383d
000003c0: 5094 a13e e8a3 f2bd cf2e 743d d10c c93d
000003d0: 33df b8bd fa9e f2bd 352c 923e 782d e0bc
000003e0: 2784 11be ec57 5a3e 4ed4 46be 0158 11be
000003f0: 6f48 66be c3e9 203e 49de 063e 57f9 40bd

bias f4 [10]
-0.06404642 0.11172948 0.0057785786 -0.0029177146 -0.056138236 -0.07269238 -0.16803432 0.023458607
0.089573786 0.042599253
00000000: c52a 83bd 6dd2 e43d 3b5a bd3b 2137 3fbb
00000010: 35f1 65bd bedf 94bd 3011 2cbe 442c c03c
00000020: 7672 b73d 8e7c 2e3d
